lstm_model.tflite (tflite, 86692 bytes, 4 tensors)

arith.constant3 f4 [1, 64]
000000 42 d7 ec 3d 50 28 61 3e 36 3b d7 3d f7 85 3b 3e
       0.11564495 0.21988034 0.105093405 0.18312822
000010 14 e3 36 3e 48 ee 39 3e c9 6d 58 be 20 5b 0d 3e
       0.17860061 0.18157303 -0.2113563 0.13804293
000020 08 ac ec bd 05 83 86 be f1 b6 dd bd da f8 ac be
       -0.1155625 -0.26271835 -0.10825909 -0.3378361
000030 52 f9 0d be fe bb 33 be 79 93 d5 bd 84 c1 54 be
       -0.1386464 -0.17552182 -0.10428519 -0.20776945
000040 45 d1 e2 3e 9f b1 c9 bd 62 c4 25 3e 16 07 ec bd
       0.44300285 -0.09848332 0.16188195 -0.11524789
000050 fc f1 b8 bd a3 7c e6 bd 92 60 d3 3d 36 c8 6f 3e
       -0.0903053 -0.11254241 0.10321154 0.23416218
000060 40 ea f6 bd 7b 55 33 be 6e 4c 3b be 03 96 49 3e
       -0.120563984 -0.17513077 -0.18290874 0.19686131
000070 e6 ad 69 be 18 7a b1 be 37 c9 2b be 54 46 07 3e
       -0.22820243 -0.34663463 -0.16775976 0.13210422
000080 62 49 16 3e da 8c ae bd bc 59 09 be 9c 4c cf 3d
       0.14676431 -0.08522959 -0.13413137 0.10122034
000090 09 4d 00 be 4b 37 25 be 7c 2b 37 3e 88 e3 27 be
       -0.12529387 -0.16134374 0.17887682 -0.1639539
0000a0 a5 b3 f0 3d 72 4d 47 3e 09 da 5e be c6 91 d9 bd
       0.117530145 0.19463137 -0.21762861 -0.10623507
0000b0 60 bf 56 be 89 0a 24 be 05 c3 5c 3e 20 77 4a be
       -0.20971441 -0.16019644 0.21558769 -0.19772005
0000c0 be ca fa 3d d4 19 1e 3e ee e6 8a 3e a7 43 db 3d
       0.12245701 0.1543954 0.2712931 0.10706263
0000d0 a2 62 4a be 08 08 32 3e ce 3c 55 be e3 9b 06 be
       -0.19764188 0.17385876 -0.20823976 -0.13145404
0000e0 46 7a 4b 3e 38 f7 07 be 93 01 a5 3c cc 14 fc 3d
       0.19870862 -0.132779 0.020142352 0.12308654
0000f0 ed 1b 3c be 20 6e 26 3e e0 0b bc 3d ec 08 9a 3d
       -0.18370028 0.16252947 0.091819525 0.07521233

arith.constant17 f4 [256, 9]
000000 cf 5f 13 bd 4a c6 00 bd 22 81 d5 3d 34 86 19 bc
       -0.035980042 -0.031439103 0.10425021 -0.009370375
000010 20 b0 c4 bc ae 83 0b be f2 e7 9f 3d 96 8d 7a bd
       -0.024009764 -0.1362445 0.07807912 -0.061170183
000020 a2 88 40 be fa 24 8a 3e b8 60 95 be 28 11 1c bd
       -0.18802121 0.26981336 -0.29175353 -0.0381023
000030 3f 5e 80 3e 9e 99 6f 3e 9c bc 01 3f b5 a3 76 3e
       0.25071904 0.23398444 0.5067842 0.24085887
000040 71 81 7f 3e 1c d8 49 3e 7e e8 e3 bc b3 c9 20 bc
       0.24951722 0.19711345 -0.027820822 -0.009813714
000050 e3 40 78 bd b0 9e 68 be 80 93 cc 3d c7 a6 aa 3d
       -0.060608756 -0.22716784 0.09989071 0.083325915
000060 ff d7 6c bd c2 98 c9 3b 04 c0 66 bc ef 6f d8 bc
       -0.057823177 0.0061522434 -0.014083866 -0.026420562
000070 de 4e 3d be 13 71 46 be 95 bd 0b be cb 3f db bc
       -0.18487117 -0.19379072 -0.13646539 -0.026763817
000080 6d 25 4b be 35 5d 2d be 99 48 0c 3b 99 85 37 be
       -0.19838496 -0.16930087 0.0021405576 -0.17922057
000090 62 9f b3 3c 51 48 89 be 92 e4 5d bd 70 7d 06 3e
       0.021926586 -0.26812986 -0.05417306 0.13133788
0000a0 48 69 89 3d 19 24 2d 3d c0 c0 18 3d d7 3b a5 3d
       0.06709534 0.042270754 0.037293196 0.08068054
0000b0 f0 57 c4 bd 7a 56 ee 3d 15 b4 1a be 26 34 c7 bc
       -0.09587085 0.11637588 -0.15107758 -0.024316859
0000c0 86 12 8c 3c 51 4f b5 3d 5b db a3 3c 70 1c 59 3e
       0.017098676 0.08853019 0.020002058 0.21202254
0000d0 e4 74 22 3e 63 a9 82 bd a6 ff 63 3b 51 f2 e7 be
       0.15864903 -0.06379964 0.003478983 -0.4530206
0000e0 30 84 27 be e4 05 55 3d 20 a7 fd bd d8 65 94 3d
       -0.1635902 0.05200757 -0.12385392 0.07245988
0000f0 9f 70 0b bd e0 ed a3 3c 9d 0e 58 be e8 15 00 3e
       -0.03404295 0.020010889 -0.21099325 0.12508357
000100 1c cf 05 be a1 c2 f0 3d 65 40 de 3d c5 9e cc bd
       -0.13067287 0.117558725 0.10852126 -0.099912204
000110 19 85 65 be 98 07 1a 3e 77 cd 3a 3d 3b e8 5f 3e
       -0.22414054 0.1504196 0.045606103 0.21865933
000120 43 2a 19 bd 38 0e b2 bd 7a 12 53 be 8c ef cf bc
       -0.03739382 -0.08694118 -0.20612517 -0.02538278
000130 66 73 4c be 59 1d cf bd 30 6e bb bd d9 d1 a8 ba
       -0.19965896 -0.101130195 -0.09151876 -0.0012879922
000140 a3 65 84 bc e4 af c4 3c a5 29 04 3e 0b aa 27 3e
       -0.016161745 0.024009652 0.12906511 0.1637346
000150 ce d1 0e 3e 71 2e 62 3e e6 12 a6 3e a1 ff 63 3d
       0.13947222 0.22088028 0.32436293 0.05566371
000160 73 26 3f 3e 3a 53 cc 3d 18 76 5f bd 36 81 27 be
       0.18667011 0.09976812 -0.054555982 -0.16357884
000170 e1 3c 44 3c 24 8f 1f bd f7 b1 5f 3e 4b 67 41 3e
       0.011977405 -0.03895487 0.21845232 0.1888706
000180 af b1 3f 3e 51 17 ac 3d 5e 29 6f 3e 79 48 cc bc
       0.18720125 0.08402885 0.23355624 -0.024936901
000190 33 85 d4 bc 3f b6 b0 bc f2 6b 8e 3d 29 8b 57 3c
       -0.02594242 -0.021571277 0.06954183 0.013155737
0001a0 dc 1d 86 bd 42 40 20 3c 16 09 59 3d 3b 04 0d 3e
       -0.06548664 0.009780945 0.05298718 0.13771145
0001b0 12 47 05 bc 87 ce b6 bd 7d cc bd bc 62 d1 09 bd
       -0.00813462 -0.08926111 -0.023168797 -0.03364695
0001c0 21 16 dc ba 52 35 d9 bd f4 bb a6 bd 39 f1 1e be
       -0.0016791263 -0.10605873 -0.08141318 -0.15521707
0001d0 1c 0d c4 3c 8b 4b d8 bb 29 8d 72 be 76 91 f5 bc
       0.023932032 -0.0066008023 -0.23686661 -0.029976588
0001e0 a4 c1 43 bd 46 6e d9 bb 09 9b dd bd b2 b8 10 be
       -0.047792092 -0.00663546 -0.10820586 -0.14132956
0001f0 48 c3 66 be 4f 97 54 be 1d 91 10 be 3c 18 37 be
       -0.22535431 -0.20760845 -0.14117856 -0.17880338
000200 69 cf 75 be 75 83 ef bd a4 16 a4 be 75 1c b5 be
       -0.24004902 -0.11694995 -0.32048523 -0.35373273
000210 ba 7f 0b be a9 e4 70 bd 02 04 60 3d fe de b0 3d
       -0.13622943 -0.058811817 0.054691322 0.086362824
000220 73 83 80 be aa e1 c3 bd c2 ce ad bd d1 e4 96 3d
       -0.25100288 -0.095645264 -0.084867015 0.07367862
000230 52 f5 5d be 7d f6 44 3d 18 df a9 bd 4b 32 1b be
       -0.21675614 0.048086632 -0.08294505 -0.15155904
000240 cd 99 1b 3e c1 ea 6b 3f a0 c5 88 3f 7c c0 e3 3e
       0.15195389 0.9215508 1.068531 0.4448279
000250 e8 20 55 3f 0f 75 3b 3f a2 55 5e 3e 66 d8 c2 3e
       0.83253336 0.7322549 0.21712354 0.38055724
000260 2a 03 71 3e 7d aa 5e 3c a6 ff f0 bc f8 0a 06 be
       0.23536363 0.013590452 -0.029418778 -0.13090122
000270 8b 92 01 be 7d 7b 96 be 81 98 16 bd 48 e7 5f 3d
       -0.12653558 -0.2939109 -0.036766533 0.054663926
000280 43 b4 25 bd 7e 26 da bd 71 d5 80 3b de b9 50 be
       -0.040455114 -0.10651873 0.003931694 -0.20383403
000290 39 6d 99 be 02 f7 95 be 83 a0 93 3d 20 3a 58 be
       -0.29966143 -0.29290015 0.072083496 -0.21115923
0002a0 a0 d2 c4 bd 8f 55 f7 bd 98 a7 85 be 0f f2 34 bc
       -0.09610486 -0.12076866 -0.26104426 -0.011044039
0002b0 ce ad f9 bc 31 80 91 bd a7 b4 b7 bd da cc 90 3d
       -0.030478384 -0.07104529 -0.089700036 0.07070322
0002c0 75 94 02 be b0 b0 1c be 14 1c a4 bd 78 a9 2b be
       -0.12751944 -0.15301776 -0.08013168 -0.16763866
0002d0 3b df 90 bb c6 47 0a 3e d6 4e 29 be 91 0f 47 be
       -0.0044211424 0.13503942 -0.1653398 -0.19439532
0002e0 d8 ca 66 be af 5a 26 be 5f ab 04 bb d9 b9 4f be
       -0.22538316 -0.1624553 -0.0020243747 -0.20285739
0002f0 56 6e 4b bc bd 57 12 bd 3c 4d 14 3e 5c 7e 01 3e
       -0.012416443 -0.035728205 0.14482588 0.12645859
000300 f5 15 01 3c 67 ce ec be 95 06 06 bf fd 9e c7 3c
       0.00787877 -0.46251222 -0.52353793 0.024367804
000310 9e e8 db 3d a6 52 ae bd 99 75 0b bd b7 af d8 bd
       0.107377276 -0.08511858 -0.034047697 -0.1058039
000320 df aa 3d be 10 41 5c be 90 86 7f bc 16 f9 ae bd
       -0.18522213 -0.21509194 -0.015596047 -0.08543603
000330 6a 29 3a be 41 3c f6 bd a4 36 bb bd 9c e5 a2 3d
       -0.1817986 -0.12023211 -0.09141281 0.07953951
000340 b6 f2 34 3e e8 57 80 3e ad 88 01 3e 30 3b bc 3e
       0.17670712 0.25067067 0.12649794 0.36763906
000350 c5 ba cc 3e ec cb 45 3e 8b f7 91 bd 0e 1b 63 3e
       0.39986244 0.19316071 -0.07127293 0.2217829
000360 de f7 52 3d 02 01 72 be 94 78 de 3d 8b f7 f9 bc
       0.051505916 -0.23633197 0.10862842 -0.030513545
000370 4b 4f ee bd c2 d7 29 3b b2 b0 f6 3d c6 be ee 3b
       -0.11636218 0.0025915955 0.12045421 0.0072859256
000380 b0 5b b0 bd 79 63 a6 bd 7c 65 91 be 73 04 22 be
       -0.08611238 -0.08124442 -0.2839774 -0.1582201
000390 80 ac 34 bd ee e7 29 be b0 50 80 bd cd 20 19 be
       -0.04410982 -0.1659238 -0.0626539 -0.14953919
0003a0 66 e0 62 be e1 78 d3 3c 65 85 f4 bc 70 53 0e be
       -0.22155914 0.025814475 -0.029848764 -0.13899016
0003b0 d2 b9 2c be be 75 95 bd 5a bb 9b bc 3e 4c 83 3d
       -0.1686776 -0.07297848 -0.019010235 0.064110264
0003c0 a4 4a 67 3d 06 14 22 3e 8f 2f c1 bc e4 67 04 be
       0.056467667 0.15827951 -0.023582248 -0.12930256
0003d0 83 c8 e7 bd 22 a0 02 be 37 90 a5 bd 09 5b 6a 3c
       -0.113175415 -0.12756398 -0.080841474 0.014303931
0003e0 4b 18 e8 bd bb cc c9 bc 78 e2 18 be 30 ca cc bd
       -0.113327585 -0.024633756 -0.14930141 -0.09999502
0003f0 ac 6f 7e bd 0c 94 ba bc 52 a1 27 be 53 86 42 be
       -0.062118217 -0.022775672 -0.16370133 -0.18996553

arith.constant18 f4 [256, 64]
000000 92 3a 6f be 8d 60 5e 3d 2e d0 b2 bd d4 f3 7a bd
       -0.23362187 0.054291297 -0.087311134 -0.06126769
000010 c3 8e 9f bd 25 12 23 3d 0f b7 23 bd d7 74 8d 3d
       -0.077909015 0.039812226 -0.0399695 0.06907051
000020 fb eb 16 bd 2e ec 84 bd d0 d7 c3 3d af ab eb bd
       -0.036846142 -0.0649036 0.09562647 -0.115073554
000030 c2 1a 21 3e 6b a3 f5 3d 35 fa 22 3e af 88 40 3d
       0.15732864 0.1199406 0.15915759 0.04700535
000040 53 d1 b4 3d 64 80 95 bd 58 20 c5 bd 57 c3 2d 3d
       0.08828988 -0.07299879 -0.0962531 0.04242262
000050 9c 80 5a 3e 64 3b af 3d 8e 7b 04 be dc 4f fe bb
       0.21338123 0.0855625 -0.12937757 -0.007760985
000060 82 4b 97 3c 05 35 84 3d a2 50 4a be 78 e1 0f bd
       0.018468622 0.06455425 -0.19757321 -0.035127133
000070 ed 0b 1c 3e 0f 6c f4 3b 37 22 1e 3d d6 fb 06 be
       0.15238924 0.0074591707 0.03860685 -0.13182005
000080 b8 13 d9 bc e7 d8 10 3e 27 a5 b7 3d 35 4a 18 3d
       -0.02649866 0.14145242 0.08967047 0.037180144
000090 9d 06 04 3e 45 58 db 3d ce 6b 1c be 6b 1c be 3d
       0.12893148 0.107101955 -0.15275499 0.09282764
0000a0 78 41 1e be 48 e3 09 bd fd c9 b1 3d 4b bb 98 3d
       -0.15454662 -0.033664018 0.08681104 0.07457598
0000b0 eb 95 18 3d b2 4d c7 3c 46 11 63 bb ab 9b e3 bc
       0.037252348 0.02432904 -0.0034647747 -0.02778419
0000c0 c4 ae 3f bd c1 a0 5b be ae df 4c 3d 78 d9 1b be
       -0.04679753 -0.21448041 0.050018005 -0.15219676
0000d0 c1 30 d9 3d 04 d1 85 3d cd 3c 2f 3c e7 4a 41 3e
       0.10605002 0.06534007 0.010695648 0.18876229
0000e0 9f 0e ff bc 42 42 97 3d 32 2e bf bd 73 18 28 3d
       -0.031134902 0.073856845 -0.09334983 0.04103894
0000f0 10 1c 84 3d fc 87 17 bd df 81 fb bb fd 42 13 bd
       0.06450665 -0.03699492 -0.007675394 -0.035952557
000100 ef d7 1c 3e c3 25 00 3e 90 11 80 bd 49 75 ba 3c
       0.15316747 0.12514405 -0.0625335 0.022761004
000110 ec 1f 9a bc 30 01 4d 3d 49 1c 93 bd 22 1a 0e bc
       -0.01881405 0.05004996 -0.07183129 -0.008673223
000120 af 9a 0a be 2b 8f 3a be 54 db d5 3b 61 5d 51 bb
       -0.1353557 -0.18218677 0.00652639 -0.0031946527
000130 18 ef fe bd e9 c8 a4 3d e2 a7 93 39 af a6 87 bd
       -0.12447947 0.08046133 0.00028163107 -0.06623589
000140 d5 b1 4d 3d 63 0e 04 3d cb 9d 6e 3d 17 51 24 be
       0.050218422 0.032240283 0.05825595 -0.16046558
000150 13 7b 63 3d 5e 4a 50 bd 2c ec bb 3d 61 59 d1 bc
       0.055537295 -0.050852172 0.091759056 -0.025555314
000160 8b f8 55 bd 0f 16 8f bc b6 52 90 3d 66 bd 4a 3d
       -0.052238982 -0.017466573 0.07047026 0.04949703
000170 99 da f7 bd 28 9e 9e 3d 8f f6 70 bb 8b 7e 53 3e
       -0.12102241 0.0774501 -0.0036768054 0.20653741
000180 60 98 c6 3d bf 50 be bd be 23 67 3d c4 f9 37 be
       0.09697032 -0.09292745 0.05643057 -0.17966372
000190 be 28 a5 bc a7 47 b7 3d 30 f3 f2 bd f3 e3 d1 bc
       -0.020161029 0.089492135 -0.118627906 -0.02562139
0001a0 87 14 1b 3e 14 75 5d bd 28 7c bd bd ff 9b 92 bd
       0.1514455 -0.054066733 -0.092521966 -0.0715866
0001b0 6e 99 90 bd bf f9 56 bc 9b 56 3c 3b 27 82 da bc
       -0.070605144 -0.013121068 0.0028738144 -0.02667339
0001c0 06 37 c4 3c 7a 71 5e 3d 80 d0 34 3e 1f a5 41 3d
       0.023952018 0.05430744 0.17657661 0.047276612
0001d0 ab 3c d5 bd bb 6c 3e 3e 77 bc cc bc 0b 75 a1 bd
       -0.10411962 0.18596165 -0.02499221 -0.07883652
0001e0 1e fe c0 3d b2 79 d5 3a 7b 6e 70 3e ab ce 5c 3c
       0.09423469 0.0016286878 0.23479645 0.013477008
0001f0 e6 94 c4 bd 51 5f 1c 3e 2f e2 8b 3d 2d 34 9e 3d
       -0.095987126 0.15270735 0.068302505 0.077247955
000200 a7 0a 0f bd 59 c3 43 3d 0e d3 9b bd 23 64 5b 3d
       -0.03492227 0.04779372 -0.07608615 0.053562295
000210 40 45 18 3e 5b 18 7a bd 68 e5 37 bd 71 7b 81 bd
       0.14870167 -0.061058383 -0.044896513 -0.06322373
000220 10 29 ae 3d d0 20 3b 3d 0e 33 6f bd 22 d1 1f 3d
       0.08503926 0.04568559 -0.0583983 0.039017804
000230 bc a7 fc 3c 5f 0b 20 3d bb 18 17 3e 28 cd 85 3d
       0.0308417 0.039073344 0.14755528 0.06533271
000240 d4 f8 21 ba 69 a8 f0 3d 04 4e ac 3d a6 6b 2d be
       -0.0006178741 0.11750872 0.08413318 -0.16935596
000250 bd 13 81 bc 25 78 c0 bc ef be ab bd e0 52 7c 3d
       -0.015756482 -0.02349479 -0.08386027 0.061602473
000260 c7 0f e1 bd d1 e4 51 bd 3f f5 ae 3d 66 d4 b5 bd
       -0.109893374 -0.051243607 0.08542871 -0.088784024
000270 f0 c2 98 3d 75 40 87 bd 14 da bf 3d 67 51 2a 3e
       0.074590564 -0.06604091 0.09367767 0.16632615
000280 77 05 29 bd 62 6c 1e 3d 95 c4 df 3d 67 5f f9 bc
       -0.041264977 0.03867758 0.10926167 -0.030441
000290 5c b7 9d 3b 85 4d 91 ba 03 6e 0a be 97 80 96 3c
       0.004813118 -0.0011085725 -0.13518529 0.018371863
0002a0 13 60 0c bd 62 40 47 3d 90 61 a7 bd fc 31 98 3d
       -0.03427131 0.048645385 -0.081729054 0.07431409
0002b0 7a 60 0e bd 15 01 ab bd f0 64 6e 3d 8a c0 d2 bd
       -0.034759976 -0.08349816 0.05820173 -0.1029063
0002c0 08 67 18 3e e5 44 ce bc 3a 82 a2 bb c7 15 e4 bd
       0.14883053 -0.025179336 -0.004959372 -0.11136966
0002d0 18 66 2f be e5 bf cf bc 3c 09 19 3d 5c 42 e1 3d
       -0.1712879 -0.025360057 0.037362322 0.10998985
0002e0 42 45 e6 bd fc 5c f6 3d b5 0d 12 be 23 67 43 3d
       -0.11243679 0.12029454 -0.14263041 0.04770578
0002f0 fb 66 6c bd 86 ac de 3d f7 00 8d bc 16 ad de 3d
       -0.057715397 0.1087275 -0.017212374 0.10872857
000300 f4 b3 b1 bd 70 4d fe 3d 7e 1d af bd d0 c1 3c be
       -0.086769015 0.12417114 -0.08550547 -0.18433309
000310 40 85 af 3d f6 f3 91 3e a2 91 97 bd b8 a6 0a bc
       0.08570337 0.2850644 -0.07400824 -0.0084626
000320 83 3b 37 3d 7c 6d 29 3e 21 c6 4b bd 91 3d 96 bb
       0.04473449 0.16545671 -0.049749497 -0.004584976
000330 00 ff a3 3d 90 c5 14 bd 43 44 64 3e 7b 44 07 3d
       0.08007622 -0.036321223 0.22291665 0.033024292
000340 6d 0f 76 bd 10 51 2d be 1d b7 e9 bd 70 99 aa bd
       -0.060073305 -0.16925454 -0.11411879 -0.08330047
000350 30 9c c4 bd aa 19 42 3e 8b 4b b1 bd e4 b8 c5 bd
       -0.09600103 0.18955103 -0.08656987 -0.09654406
000360 ec be c9 3d 46 f8 67 bc fc e7 67 3d 63 65 53 3d
       0.098508686 -0.014158314 0.056617722 0.05161036
000370 26 9a 0e bd fd cb 3d 3e 82 06 03 3c 79 ce 16 3d
       -0.034814976 0.18534847 0.007997157 0.036818
000380 74 3d 49 bd a0 c4 e3 3d 0f 54 8f bd d6 22 53 be
       -0.049130872 0.111214876 -0.06998455 -0.20618758
000390 00 8a f1 3c 7c d3 56 3d ce 10 ad bd c7 0b c3 3c
       0.029484749 0.05244778 -0.08450471 0.023809327
0003a0 2b 1d 58 3d d4 9a 31 bd 85 1d 60 3d 8e 77 46 3d
       0.05276219 -0.043360546 0.054715652 0.04845386
0003b0 52 1e 49 bd 5a 6f e4 bb 63 65 82 3d 77 96 8d bd
       -0.04910118 -0.006971282 0.06366994 -0.069134645
0003c0 8d 6b 97 3d d6 49 f1 bd 72 09 b6 bd b4 f1 b0 bc
       0.073935606 -0.11781661 -0.0888852 -0.021599628
0003d0 48 51 05 bb 97 ef c4 3c 44 5e c4 3c 5d 4f bf 3d
       -0.0020342637 0.024040027 0.02397073 0.09341309
0003e0 51 0b e4 bc 63 6c 86 bd 3d fa bc be 1e 3f 8d bc
       -0.027837427 -0.06563642 -0.36909667 -0.01724201
0003f0 30 ee e2 bc 70 99 8b 3c 3b 49 06 3c 34 6c 41 3b
       -0.027701467 0.017040938 0.00819617 0.0029513957

sequential_1/lstm_1/while/lstm_cell_1/add_1/ReadVariableOp f4 [256]
000000 ef dc 76 bd f6 aa 6a 3e ca 6f 21 be 41 e8 12 be
       -0.060269292 0.22916779 -0.157653 -0.1434641
000010 14 88 bb 38 42 2b 92 3d ca 22 af bd e8 a3 a7 3d
       8.9422014e-05 0.07137157 -0.08551557 0.081855595
000020 59 79 c0 bd ae e9 1c 3e 72 87 a0 3d 2f b0 90 3d
       -0.09398145 0.15323517 0.07838334 0.07064854
000030 da a8 0e be a8 15 17 be 75 1d ef bd 03 c8 d3 bd
       -0.139316 -0.14754355 -0.1167554 -0.103408836
000040 e3 a0 cb 3e e7 d2 fd bd 61 f8 17 be f5 11 38 bd
       0.39771184 -0.12393742 -0.14840843 -0.044939
000050 cc e6 a3 bd d5 0d 9a bc 84 02 e1 bd 87 90 17 3e
       -0.080030054 -0.018805424 -0.10986808 0.14801227
000060 6b 2b cb bc be fa f3 bd db a5 2f 3d 6e bb 92 bd
       -0.024800977 -0.1191306 0.04288278 -0.071646556
000070 bc 2c b8 bd 91 fc cc 3e 33 7e f8 bd 4a 10 33 be
       -0.089929074 0.40036443 -0.121334456 -0.17486683
000080 be de 18 3c 74 06 9a bd 20 01 00 3e cf d9 f8 bd
       0.00933045 -0.07520762 0.12500429 -0.12150919
000090 bf 10 1e be ab e8 ae bd 9f c9 55 be df 21 f5 bd
       -0.15436076 -0.08540472 -0.20877694 -0.11969351
0000a0 53 fb 2b bd 3d fb d3 bd 59 7e cd bd 96 cd 94 3d
       -0.04198773 -0.10350654 -0.100338645 0.07265775
0000b0 df 6c 81 bd c8 95 0a 3d e2 cc f5 bd a7 67 91 bd
       -0.06319594 0.03383425 -0.12001969 -0.07099848
0000c0 27 66 c6 3d ea 21 9d bd 0b 11 81 3b 1c 66 ea bd
       0.09687453 -0.07672484 0.0039387993 -0.11445257
0000d0 84 2a 86 bd e1 1f 12 3d f5 d6 2f be d6 b3 1d be
       -0.06551078 0.035674933 -0.17171843 -0.15400633
0000e0 90 48 c8 bc bc a8 e6 bd 6c 02 ac 3d e8 db 04 be
       -0.024448663 -0.11262652 0.083988994 -0.12974513
0000f0 4d d0 18 be d7 d9 db ba 71 00 79 bd 8a f9 bc bd
       -0.1492321 -0.0016773295 -0.060791437 -0.09227283
000100 b3 4c 51 3f ef a4 26 3f 20 11 5e 3f f9 3c 49 3f
       0.8175766 0.6509542 0.8674488 0.7860866
000110 1d ad 3a 3f c0 f2 59 3f ac 9b 25 3f d4 4d 52 3f
       0.729204 0.8513603 0.6469066 0.82150006
000120 76 d8 44 3f 65 9d 35 3f ed e5 42 3f c7 c7 44 3f
       0.76892793 0.7094329 0.7613209 0.76867336
000130 97 b3 33 3f c0 c4 3b 3f 96 87 5e 3f ad 23 2f 3f
       0.7019591 0.7334709 0.8692564 0.6841381
000140 1d 61 12 3f cb 52 50 3f 4a 15 53 3f 17 ea 34 3f
       0.57179433 0.8137633 0.8245436 0.7066969
000150 6d 15 6d 3f 91 92 49 3f ac 97 60 3f 17 5d 0a 3f
       0.9261082 0.7873927 0.8773143 0.54048294
000160 72 48 60 3f d4 ed 31 3f b4 b2 45 3f 84 7a 43 3f
       0.8761054 0.6950352 0.77225804 0.7635882
000170 71 24 2f 3f c9 3c 2f 3f 84 2e 48 3f 10 95 4f 3f
       0.6841498 0.68452126 0.7819598 0.81086826
000180 e5 20 55 3f 2d 75 78 3f 44 47 3a 3f d5 70 54 3f
       0.8325332 0.97053796 0.7276499 0.8298467
000190 28 4e 64 3f 30 e6 45 3f 98 0a 48 3f ae 1c 38 3f
       0.89181757 0.77304363 0.78141165 0.7191876
0001a0 56 3c 45 3f ff a5 4f 3f 1d d9 1a 3f af 3c 4b 3f
       0.7704519 0.81112665 0.6048754 0.7938947
0001b0 dd fb 06 3f 15 3a 3d 3f 54 b4 3e 3f 2d c1 1c 3f
       0.5272806 0.7391675 0.7449391 0.6123226
0001c0 96 f8 5e 3f fc 41 44 3f 13 9b 0c 3f ec 9d 65 3f
       0.8709806 0.76663184 0.54924124 0.89694095
0001d0 5b bd 3d 3f 59 c0 3d 3f b4 a4 2f 3f 41 9d 60 3f
       0.7411706 0.74121624 0.6861069 0.8773995
0001e0 f9 39 3f 3f 13 88 45 3f cd 94 83 3f 9c 61 56 3f
       0.74697834 0.7716076 1.0279785 0.8374269
0001f0 4f d7 42 3f 0d 8c 3e 3f b0 a0 6a 3f 57 ec 66 3f
       0.76109785 0.7443245 0.9165144 0.90204376
000200 93 c0 8d bd 4d f1 d8 bd 51 10 85 3d 04 4c 6d bc
       -0.06921496 -0.105928995 0.06497253 -0.014483456
000210 15 3b 15 bd b4 48 f7 bd 67 b9 58 3c df c8 08 be
       -0.0364333 -0.12074414 0.013227797 -0.13357876
000220 af e7 6f 3d dc 2d f4 3d 2f 8b 9e 3d 02 28 1c 3e
       0.05857056 0.119228095 0.07741391 0.15249637
000230 1b 72 9b bd e0 8b 26 3d 74 6f 62 bd ab d8 1d 3d
       -0.07590123 0.04066074 -0.05528207 0.03853671
000240 84 fd 20 be 34 c8 9e bd a8 09 cf 3d 77 b3 a6 bd
       -0.15721709 -0.077530295 0.10109264 -0.08139699
000250 63 b9 e9 bd e4 9c cf 3d 11 ef c7 3d 62 62 94 bd
       -0.11412313 0.101373464 0.09762395 -0.072453275
000260 8e ae 1a 3e 43 91 f6 3b 62 b9 02 3e 86 dd 98 bd
       0.1510565 0.0075246408 0.1276603 -0.07464127
000270 ab 24 0c 3c 1b 08 18 3e 7d c0 23 bc 01 23 b7 3d
       0.008553664 0.14846842 -0.009994623 0.08942223
000280 19 9d f1 bd 3e 59 ba bd a7 03 fb 3d f5 8c be 3d
       -0.11797542 -0.09099053 0.12256556 0.09304229
000290 2d 45 f5 bd 21 3d 82 3d 1a 9a a6 3c 96 c7 87 bd
       -0.11976085 0.06359316 0.020337153 -0.06629865
0002a0 61 7d 6a bd ce e9 46 bd f5 5b 04 3b fb 86 dd 3d
       -0.057248477 -0.048562817 0.0020196412 0.10816761
0002b0 48 61 89 bc 45 5c d6 3d 28 b4 5a bd a0 ae 2e bd
       -0.01677002 0.10466818 -0.053394467 -0.042647004
0002c0 bb d4 d4 bd e5 89 ef bc 5d 16 88 bd 60 31 c3 3d
       -0.103921376 -0.029240558 -0.066448905 0.09530902
0002d0 81 a0 26 3d 30 8d a9 bd f5 87 97 3c 82 81 a0 bd
       0.040680412 -0.082788825 0.018497447 -0.07837202
0002e0 6a 81 d6 bd f3 4e 37 bc dc 21 d1 3d 2d 2f 08 3e
       -0.104739025 -0.011188257 0.10211536 0.13299246
0002f0 3f 53 9c bc c1 b0 ad bd c1 9d 13 3e 87 8c e9 3d
       -0.019082664 -0.08480979 0.14415647 0.114037566
000300 e3 7a a4 bd 48 b3 5e 3e ec 62 18 be fa 41 26 be
       -0.08031251 0.21748078 -0.14881486 -0.16236106
000310 a7 03 f4 bc d0 ce 68 3d 4e d4 bc bd 77 2f a0 3d
       -0.029786898 0.056837857 -0.092201814 0.07821553
000320 f4 7c bb bd 3d 10 1b 3e 1d 23 96 3d ba ee 6c 3d
       -0.09154692 0.15142913 0.07330916 0.057844855
000330 08 9e 0c be ff 2c 15 be 11 2d e5 bd 63 29 c7 bd
       -0.13732159 -0.14567946 -0.11190236 -0.09724691
000340 4d a7 bf 3e be 0f 1d be ea 54 06 be e0 0a 65 bd
       0.37432328 -0.15338036 -0.1311833 -0.055918574
000350 51 d3 9e bd e5 3a d7 bc f2 57 f1 bd 63 1d 17 3e
       -0.07755149 -0.0262732 -0.11784352 0.14757304
000360 b0 c8 34 bd 29 ea 05 be 9b 39 2e 3d 49 2e b2 bd
       -0.044136703 -0.13077606 0.042535406 -0.087002344
000370 a4 59 c0 bd ac cf ef 3e 2c ba 02 be 4a 69 38 be
       -0.093920976 0.4683813 -0.12766331 -0.18008915
000380 6e 43 e3 3b 6d ff b7 bd 41 72 07 3e 96 7d 13 be
       0.0069355285 -0.089842655 0.13227178 -0.14403376
000390 b2 dd 1c be 83 5d cd bd 6f 9d 53 be 01 b6 ff bd
       -0.15318945 -0.100276016 -0.20665525 -0.12485886
0003a0 69 5b 53 bd a0 1d df bd 50 a5 fc bd e9 58 81 3d
       -0.051600847 -0.108943224 -0.12336218 0.063157864
0003b0 70 9d 92 bd 40 31 84 3c 04 0b e8 bd 81 51 ae bd
       -0.07158935 0.016136765 -0.11330226 -0.085116394
0003c0 00 2e 63 3d 53 08 bf bd 3c 9c 8b bb c1 1c e0 bd
       0.05546379 -0.093277596 -0.004260568 -0.10942984
0003d0 58 83 97 bd 86 6a f4 3c b6 eb 2f be 53 f8 1f be
       -0.07398099 0.02983595 -0.1717976 -0.15622072
0003e0 1a 7f d5 bc 15 3b 16 be 0c 61 0b 3e 59 ce 05 be
       -0.026061583 -0.14670976 0.13611239 -0.13066997
0003f0 b1 3d 2c be 89 f5 a1 bc e8 9f 8b bd da b9 de bd
       -0.16820408 -0.0197704 -0.06817609 -0.10875292
