lstm_feature_extractor.tflite (tflite, 293968 bytes, 4 tensors)

arith.constant3 f4 [1, 128]
000000 0a 04 b9 bd 7b 7b 7c 3d 3f df b3 3a f8 15 4c be
       -0.090339735 0.061641198 0.0013723149 -0.19930255
000010 a0 1b de 3d 95 c4 16 bd 9f c2 4d bd cf 5d fa bd
       0.10845113 -0.03680857 -0.050234433 -0.12224924
000020 c6 22 3a 3e 65 df 3d be 1a b8 1c 3e cb 12 15 be
       0.18177328 -0.1854225 0.15304604 -0.1455795
000030 5c 27 e9 bd c9 39 d2 bd 6a 94 1a be 55 65 4b bd
       -0.1138446 -0.10264928 -0.15095678 -0.049657185
000040 74 d1 fd 3d 64 00 27 3e 9f 10 95 bd 4b 30 fa bd
       0.12393466 0.16308743 -0.07278561 -0.122162424
000050 5b ef 96 bc ba fd ba bd 0b 4d 9a 3d 48 9d 2c be
       -0.01842468 -0.09130426 0.07534226 -0.16856873
000060 0a db a8 bd d0 32 51 be 35 42 1f be bb 3b 45 be
       -0.082449034 -0.2042954 -0.155526 -0.19261067
000070 26 c2 c3 3a 58 dc 53 3e ad 37 b5 3d 85 57 d1 3c
       0.001493518 0.20689523 0.0884851 0.025554428
000080 b5 fc ea bd 83 e4 1e be 49 8f 49 be 54 b8 0f 3d
       -0.11473981 -0.15516858 -0.19683565 0.0350879
000090 3f 0a d6 bd 26 ff a7 3c 2a 85 57 3e 27 4f 90 bd
       -0.10451173 0.020507406 0.21046892 -0.07046347
0000a0 14 92 1f 3e d0 16 3d be bb 18 1b 3e c1 91 95 3d
       0.15583068 -0.18465734 0.15146153 0.07303191
0000b0 eb f6 75 be 4f 97 04 be de e6 87 3d 6c 77 38 3e
       -0.24019973 -0.12948345 0.06635831 0.18014306
0000c0 2a 5a 03 be 04 6a 04 38 bb 95 71 3d de 73 0f 3e
       -0.12827364 3.1569987e-05 0.058980685 0.14009044
0000d0 4d 42 c7 3a de 37 87 bd ac 7f 4a be e4 72 3e be
       0.0015202254 -0.06602453 -0.19775265 -0.18598515
0000e0 c6 b2 9e 3d f6 8a 31 be 0e 28 10 3e d4 70 6f bd
       0.07748942 -0.17338166 0.1407778 -0.05845721
0000f0 e8 c3 ef bd b2 30 f6 bd 76 77 f9 3c 14 63 14 3d
       -0.11707288 -0.12021007 0.030452471 0.0362273
000100 c2 72 35 3e fc 02 fd bd 0e d0 37 be b2 b6 17 3e
       0.17719558 -0.12354085 -0.1795046 0.14815786
000110 b0 6b de bd 0a 23 42 3c 57 d5 16 be 0a 6e 1c be
       -0.108603835 0.011849174 -0.1472982 -0.15276352
000120 5f c0 cd 3c 1a 03 c3 bd 13 08 50 bd 5f 2a dd bd
       0.025116144 -0.09522076 -0.05078895 -0.10799097
000130 52 61 11 be 41 f1 43 bd c6 0f 37 be 68 05 fd bd
       -0.14197281 -0.0478375 -0.17877111 -0.12354547
000140 09 79 2c 3e 2d 58 d1 3d 00 26 26 bd 2d c0 b8 3d
       0.16843046 0.10221896 -0.040563583 0.090210296
000150 73 b4 96 3d 2e 26 e1 bd 14 47 f9 bd 05 07 62 3e
       0.07358637 -0.1099361 -0.1217176 0.2207299
000160 33 0b 2c 3e 2c 9c 9a 3c c8 bb 21 3e 50 c7 d6 3c
       0.16801147 0.018873297 0.15794289 0.026218086
000170 3b 22 1d 3e 59 38 c7 3d da 1e d2 3c ea 35 16 3e
       0.15345089 0.09727544 0.025649477 0.14669004
000180 3f 18 91 bd 03 17 14 3e 1e 53 0b be 34 21 4b be
       -0.07084703 0.14461903 -0.13605925 -0.19836885
000190 34 d0 28 3e 60 d0 1c be f3 0c 6d 3d 51 60 c2 bd
       0.16485673 -0.15313864 0.057873677 -0.09491027
0001a0 b5 02 ac 3d e4 60 22 3e 21 fe 88 3d a3 86 a0 bd
       0.08398954 0.15857273 0.06689096 -0.0783818
0001b0 70 80 eb bc c5 e4 4f bc 8f 84 48 be 92 96 14 3d
       -0.028747767 -0.01268882 -0.19581817 0.036276408
0001c0 6e c4 1c bd 6d 87 37 be 60 22 a0 bd 64 d6 b0 3c
       -0.038273267 -0.17922755 -0.078190565 0.021586604
0001d0 29 47 2b be 73 1b a3 3c b6 7e 8f ba 83 ca 9a bd
       -0.16726364 0.01991055 -0.0010947797 -0.07558157
0001e0 6f f4 85 bd ac 0b 41 be 93 15 1b be dc 95 c2 3d
       -0.06540763 -0.18852109 -0.15144949 0.0950124
0001f0 99 39 31 3e 02 85 08 3e 05 06 02 be ff 6c bf 3d
       0.17307128 0.13331988 -0.12697609 0.09346961

arith.constant17 f4 [512, 9]
000000 f1 88 70 3d 17 f9 b1 bc 4f 2d ae 3d ed 28 72 bd
       0.058724348 -0.02172522 0.08504736 -0.05912106
000010 6f c4 77 bd d0 f6 3a bd da 9e e7 3d cb 72 85 bd
       -0.060490068 -0.045645535 0.113095954 -0.06516036
000020 2b d5 37 bc 07 d5 c1 bd 9c 9a 2a bd 4e 4f 1d 3d
       -0.011220257 -0.0946446 -0.041651353 0.03840571
000030 71 f2 60 3d 3f b8 84 3b 7a 11 eb bd c3 b4 ed bd
       0.05491871 0.004050284 -0.11477943 -0.11606743
000040 73 ca f3 bd ef 22 05 be 91 ea 81 3d 3d 6c af 3d
       -0.119038485 -0.13001607 0.06343568 0.08565567
000050 78 15 ee bd ec 21 cf 3d 69 91 a8 bc d6 66 4b 3c
       -0.116251886 0.10113892 -0.02057715 0.012414655
000060 1f 5e 7d 3d a3 76 83 ba c6 6e be 3d 93 e3 a1 bc
       0.06185734 -0.0010029863 0.09298472 -0.019761836
000070 f5 03 a1 bc 06 9a 93 bc 46 a8 25 bd 11 bc 24 bc
       -0.019655207 -0.01801778 -0.04044368 -0.010054604
000080 01 b9 4f 3d 91 53 bb bd 6a 16 ae bd b8 77 a1 3c
       0.050713543 -0.091467984 -0.08500369 0.019710407
000090 e0 af 9f 3c 3c dc 71 bd 58 87 77 bd a3 e1 34 bd
       0.019493043 -0.059047922 -0.06043181 -0.044160496
0000a0 16 89 31 bd 51 7a 26 bd e9 34 3b 3c 4c 00 36 bc
       -0.043343626 -0.040643994 0.011426189 -0.011108469
0000b0 78 cb 1b be aa 40 cf bb 8c 84 9e bd 9b 6c 1d bc
       -0.15214336 -0.006324847 -0.07740125 -0.009608413
0000c0 ae bd 83 bd 73 91 e8 bd 81 50 87 bd 27 0c bf bc
       -0.06432663 -0.11355867 -0.06607152 -0.023321224
0000d0 69 ef bb bd a2 2e e7 bd 59 ff 7d 3d 75 6d 99 3d
       -0.09176523 -0.112881914 0.062011097 0.074915804
0000e0 4d 7a a2 3d ce 9c ef 3d a0 d8 d2 3d 28 4d 49 bd
       0.07933483 0.1169983 0.10295224 -0.049145848
0000f0 6d 42 a8 3d 6b d8 89 bc 16 71 b2 bd 1d 2b 09 3e
       0.08215795 -0.016826829 -0.08712976 0.13395353
000100 be ed 38 3d 64 76 df 3d 8c fb 0b 3e ba 19 a0 3d
       0.045148604 0.10911253 0.13670176 0.07817407
000110 56 9a 05 3c 6a f0 b6 bb 95 44 e7 bc 28 30 40 3d
       0.008154472 -0.005582859 -0.028230945 0.046920925
000120 bd 8c c1 3d 35 62 c9 3d 67 96 b1 3b 0c d2 92 bc
       0.09450672 0.09833185 0.0054195407 -0.017922424
000130 da 58 a5 bd 5c 3a ab 3d e8 aa 25 bd 87 9e ca bd
       -0.08073588 0.083607405 -0.040446192 -0.09893518
000140 f0 54 c9 3d c6 b5 e9 3c 24 1c 8f bd ba 13 51 bd
       0.09830654 0.02852906 -0.06987789 -0.051044203
000150 e8 ff 0e 3d 32 40 c8 3d cf f0 9a bd 1a b3 70 3d
       0.03491202 0.09777869 -0.07565462 0.058764555
000160 ac b5 14 bd a0 fa 1b bd cd 52 09 3e 2a 14 05 3e
       -0.03630607 -0.03808081 0.13410492 0.12995973
000170 6a bd 67 bd 38 7e 18 3c ff e8 83 bd 83 67 06 bd
       -0.056577124 0.009307437 -0.06440925 -0.03281356
000180 4d 03 ba 3d 5b 08 47 3d 3c 31 3e bd 76 99 e2 3b
       0.09082661 0.048591953 -0.046433672 0.0069152666
000190 72 78 52 bd b1 d6 c7 bb 0f 5c a5 bd 3f 59 34 bd
       -0.051384397 -0.0060985913 -0.080741994 -0.044030424
0001a0 4f bb db bd dd 15 0c 3d 30 f7 3b 3d ed 8e 02 bc
       -0.10729086 0.034200538 0.045890033 -0.0079686465
0001b0 b8 05 03 bd 1a 75 1d bd 16 80 55 bd d4 73 c2 3c
       -0.031987876 -0.038441755 -0.052124105 0.023736872
0001c0 93 b7 50 bd fb 6c 10 bd 57 7f 31 bd 4a 0f cf 3d
       -0.05095632 -0.035260182 -0.04333433 0.10110338
0001d0 48 67 94 3d e7 9d 97 3d 7a 58 5d 3d 84 7e 22 3d
       0.07246262 0.07403164 0.054039456 0.039671436
0001e0 bb 6c ed 3c 8e d0 f8 bc 0a 2e 98 bd 70 3c 73 bd
       0.02898251 -0.030372884 -0.07430656 -0.05938381
0001f0 97 a4 b4 3b 12 62 34 bd 9e 19 84 bd c1 a3 21 bd
       0.0055127847 -0.04403884 -0.064501986 -0.03946281
000200 e6 77 d8 3d 01 8b b1 3d 17 21 7a bc 5e 8e 97 bd
       0.10569744 0.08669091 -0.015266678 -0.07400201
000210 ca d1 80 bd a9 77 c8 3c 80 af f9 3d 5d c6 65 3d
       -0.06290014 0.02447112 0.12191677 0.056097377
000220 be 15 a0 3d a5 3d 6c bc 36 d6 bf 3d 63 27 e9 3b
       0.07816647 -0.014418994 0.09367029 0.007115291
000230 ef b3 8f bd 46 cf fe bd 20 ca f2 bd 15 b0 5b 3d
       -0.070167415 -0.12441878 -0.118549585 0.05363472
000240 53 66 9f 3d 70 55 b9 3d 56 74 b5 3d e1 90 f6 3d
       0.07783189 0.09049499 0.0886008 0.12039352
000250 3d 9c c8 3d b0 4e d5 3d 79 17 9a bc 89 e4 bf 3d
       0.09795425 0.10415399 -0.01881002 0.093697615
000260 31 1a d7 ba b0 cd 73 bc 17 44 55 3d 97 82 e1 3d
       -0.0016411004 -0.014880583 0.05206689 0.11011236
000270 f5 98 a1 3d a4 9f 33 bd 1e 29 f5 3d 9c 3e 6a bd
       0.07890502 -0.043853417 0.11970733 -0.057188615
000280 62 32 39 bc 9f 6c 42 bd af c8 a0 3d 3c 7e d3 3d
       -0.011303516 -0.04746687 0.07850777 0.10326812
000290 d5 1e fe 3d 0c 08 9e 3d c1 4b 96 3d a2 3f 99 3d
       0.124082245 0.077163786 0.07338668 0.0748284
0002a0 e5 70 b7 bd ff d3 9e 3d fc e8 c4 3d fb 86 0e 3c
       -0.0895708 0.07755279 0.09614751 0.008699174
0002b0 72 4a 61 bd 98 a8 7d 3d 8d 74 a7 3d d0 2f 14 bd
       -0.055002637 0.06192836 0.08176527 -0.03617841
0002c0 7d b1 ba 3d 0e ad e5 3c 75 30 af 3d c1 76 3d 3d
       0.091158845 0.02803662 0.08554164 0.04625583
0002d0 bd d3 60 bd f2 7c a8 3d 35 ce 73 bd 23 f7 89 3c
       -0.05488943 0.082269564 -0.059522826 0.016841477
0002e0 59 53 56 3d 55 f1 70 bd 39 a9 89 3d b1 f6 0e bd
       0.05232558 -0.058823902 0.0672173 -0.034903232
0002f0 12 2f cc 3c 88 25 8e bd 9c 3d f9 3d 61 a2 3c bd
       0.024924789 -0.06940752 0.12169954 -0.046053294
000300 26 39 9a 3d 0e 2c cb 3d 99 55 9b 3b e0 37 e2 3c
       0.075304314 0.09920512 0.0047404286 0.027614534
000310 3b 78 11 bc 0e 8a 32 3d 16 f9 23 3d 88 5c 65 3d
       -0.008878763 0.04358869 0.04003247 0.055996448
000320 f4 fa 95 bd 84 7e 55 3d b4 25 22 bd 7f 75 40 3d
       -0.07323256 0.052122608 -0.039586738 0.046987053
000330 71 08 1e bd 6e f8 25 bd 79 8c 0d 3d 8e 3c 06 3e
       -0.03858227 -0.040520124 0.034557793 0.13109037
000340 92 15 09 3e 41 08 44 3d 5e 32 98 3d 50 16 60 bc
       0.13387135 0.047859434 0.07431482 -0.013677195
000350 31 20 02 3e ae 7f fc bc 25 5c 06 3e 2c 69 59 bd
       0.12707593 -0.030822601 0.13121088 -0.053078815
000360 6c 90 a1 3d 71 88 be bb 14 9b 14 3c 5a dd 37 3d
       0.078888744 -0.005814605 0.009070177 0.04488883
000370 33 6d d0 3d 06 4d 58 3d 18 68 a8 bd d1 ad a6 bc
       0.10177078 0.05280783 -0.08222979 -0.020346554
000380 09 89 a9 3d b9 36 43 bd 92 7a 90 3d bb 21 ec 3d
       0.082780905 -0.04765961 0.070546284 0.11529871
000390 13 cf 78 bd a6 0b 1c bd 1e dd e4 3d ce c1 c4 3c
       -0.060744356 -0.038097046 0.11174987 0.024018195
0003a0 c6 fa 7a bd 2d 7b 01 3e 2e 1c 41 3d c7 b2 9a bd
       -0.061274312 0.12644644 0.047146015 -0.0755363
0003b0 fa fb 0b bd ce 3b 16 b9 9f 3e 84 bd a0 f6 11 bd
       -0.03417585 -0.00014327394 -0.064572565 -0.03563559
0003c0 60 13 5a 3d 73 c2 d2 bb ba ed ab 3b fb 26 76 3d
       0.053241134 -0.0064318716 0.005246845 0.06009577
0003d0 64 14 2c 3c 58 8f 36 3d 54 5b 3c 3d cf 56 b3 3d
       0.010502908 0.044570297 0.045985535 0.08756792
0003e0 82 dd f2 3c 9a fb 59 bd 6e b4 f1 3a 07 07 54 bd
       0.029646639 -0.05321846 0.0018440613 -0.051764514
0003f0 0d fc d7 bd c0 e2 29 3d 6c b2 af 3d a8 f4 1f bc
       -0.10546122 0.04147601 0.08578953 -0.00976292

arith.constant18 f4 [512, 128]
000000 b6 36 b9 bd 8b 42 55 bc 01 b2 79 3d bd 61 1b 3d
       -0.090436384 -0.013016353 0.060960773 0.037935007
000010 54 34 aa 3c 18 b9 84 3d 07 aa 23 bc e3 1d a8 bc
       0.020776905 0.06480616 -0.009989268 -0.020522064
000020 5f 9d ed bc ba 65 a2 bc e5 1f c2 3b be cd 95 3b
       -0.029005704 -0.019823898 0.0059242123 0.0045716455
000030 21 d9 95 3c 80 1c f1 3b 6e af 1d bd 9f de 44 3d
       0.018292012 0.007358134 -0.03849738 0.04806387
000040 a4 44 1a 3d 49 79 62 3d 57 83 36 bd e8 ca 1b bd
       0.037663117 0.055291448 -0.04455885 -0.038035303
000050 82 3f 1c bd 33 11 0f bd b7 96 bc bd f6 e3 72 bd
       -0.038146503 -0.03492851 -0.09208434 -0.05929943
000060 7c cc c1 3d 39 07 e3 bc df 7c 2e bc 84 8d d2 3c
       0.094628304 -0.027713405 -0.010649889 0.025702246
000070 30 d1 18 3c 0d fb 85 bd 4a 3c e5 bc 7e d3 8a 3d
       0.009327218 -0.06542025 -0.02798285 0.0677862
000080 f6 e5 19 3d 9a 8e 01 bd db a2 bf bc e5 37 e6 3c
       0.037572823 -0.031630136 -0.023393085 0.028102824
000090 43 31 d3 3b aa 6a 96 3d e0 b8 8c bd 1a d9 39 bc
       0.0064450814 0.07344563 -0.068711996 -0.011343265
0000a0 d7 1e 43 3c c0 07 39 3b 5a ee 5c bc 45 bb 89 3c
       0.011909208 0.002823338 -0.013484562 0.01681293
0000b0 78 3e c3 bc a7 ca 80 3c 58 9a 8e bc 6c dc 93 3d
       -0.023833498 0.015721632 -0.017407581 0.072197765
0000c0 c4 e6 33 ba 0b da 6b 3c 53 c9 12 3d d1 a4 5a bc
       -0.0006862695 0.014395247 0.03583653 -0.013344959
0000d0 d7 55 af bc 6d 9e 02 bc 6d 46 1e bd 9f 1b 3c 3d
       -0.021403236 -0.007972342 -0.038641382 0.04592478
0000e0 0a a9 ab 3b 61 f8 95 3c b8 41 4e 3d 20 8b 9a bd
       0.005238657 0.018306913 0.050355643 -0.07546067
0000f0 84 37 9d bc 5d bf fb bc a2 1c f9 3c 0d 72 a4 bd
       -0.019191511 -0.030730898 0.030409161 -0.08029566
000100 ba 85 b1 3d 92 7e d4 ba d4 94 39 bb c8 e6 c0 3b
       0.086680844 -0.0016212037 -0.0028317468 0.0058868863
000110 81 9a 65 bd e0 4c 7d 3d 32 d8 0e 3d 35 8e 33 bd
       -0.05605555 0.06184089 0.03487415 -0.04383679
000120 44 47 6e bd 3e 54 d5 bd 9a b6 df 3c 6d b9 58 bc
       -0.058173433 -0.104164585 0.02730875 -0.013227803
000130 82 33 bc bd a7 33 df 3d 64 b2 20 bd 60 97 f3 bc
       -0.09189512 0.10898524 -0.039232627 -0.029735267
000140 da 1c 84 bc 27 05 bb bd a3 f6 23 3d b1 96 a3 bc
       -0.016127039 -0.09131842 0.040030133 -0.019969316
000150 6c 34 fd 3c 0b 94 89 3c 9e 4b 98 3d 41 a6 5b 3d
       0.030908786 0.016794225 0.07436298 0.05362535
000160 36 24 f7 3b 4b 97 5c 3d 60 6f b5 bc ed 0f 2e bd
       0.0075421585 0.05385522 -0.022147834 -0.042495657
000170 57 2d d3 bd 38 f7 19 bc e4 27 20 3b e8 73 59 3c
       -0.10311382 -0.00939732 0.002443784 0.013272263
000180 88 5e 7c 3c 8f c6 90 3d 2c e3 21 bd fc 87 5c 3d
       0.015403397 0.07069122 -0.03952329 0.053840622
000190 e1 90 08 3d 7e 2b 7d 3c 6d 73 30 bd b3 e6 59 bc
       0.033341292 0.015452264 -0.04307883 -0.013299632
0001a0 d9 d8 03 bb 2c c5 c5 bd 86 4e 40 bc 20 47 72 bb
       -0.0020118265 -0.09656748 -0.011737471 -0.0036968663
0001b0 b0 24 62 3c 63 cc 51 3d c6 7f 4e bc 54 d1 16 3d
       0.013802692 0.05122031 -0.012603706 0.036820725
0001c0 24 3d 00 bd 50 7d 0f 3d d4 42 fd bc d0 6b 3d 3c
       -0.03130831 0.035031617 -0.030915655 0.011561349
0001d0 c9 06 9a bd df cb eb 3c 73 0f f8 3c 0f bd 70 3d
       -0.075208254 0.028783737 0.030280804 0.05877405
0001e0 e9 84 5a 3d b1 f2 73 bc 69 d5 51 bd cf 48 59 bd
       0.05334941 -0.014889405 -0.051228914 -0.05304795
0001f0 08 ee b6 3c 8d 36 73 3d 36 d9 80 3b 7d e9 4d bc
       0.022330299 0.059378196 0.0039321436 -0.012567875
000200 a0 20 d5 3b 4f 71 d4 bd 05 55 c0 bd 6b 85 92 bd
       0.0065041333 -0.103731744 -0.09391216 -0.07154354
000210 d0 96 1f 3d 9e 82 ef bc 77 1f 1f 3d 6a eb d1 3c
       0.038962185 -0.029237088 0.038848367 0.02562495
000220 64 5d ad 3c 96 7f d4 3c 8d 44 41 bd d0 40 ed 3b
       0.021162696 0.025939744 -0.047184516 0.0072403923
000230 8d a4 9c 3d 46 8d ba bd 2b 8b 8c 3d 46 32 07 bd
       0.07648573 -0.09108977 0.06862482 -0.03300693
000240 1f b5 a9 3c 62 85 cc bc 02 e9 30 3d 01 2f ad 3b
       0.020716248 -0.024965946 0.043190964 0.0052851443
000250 65 c6 7a 3d b0 4c d4 3d 4d 70 b7 bd 08 d0 a5 3d
       0.06122436 0.103661895 -0.089569665 0.080963194
000260 72 9a 2c bd 71 1a 69 3d 4f 53 80 3d c0 a7 8c 3c
       -0.042139478 0.056909982 0.0626589 0.017169833
000270 ba 6a 4c bd cf f8 f1 bd 97 ea 08 3c 5c a4 1e 3c
       -0.04990647 -0.118150346 0.008356712 0.009682741
000280 b0 ec a3 bc 5c f1 f2 3b 4b c5 84 3d aa 78 f7 3c
       -0.020010322 0.007414026 0.06482943 0.030208904
000290 62 fd c6 3c c3 1d 18 bd e8 a6 c0 bd a0 14 45 3d
       0.024290744 -0.037137758 -0.09406835 0.048115373
0002a0 47 98 54 bd 23 a6 e2 3c 8c 76 11 bc 5e b8 cd bd
       -0.051903035 0.02766711 -0.008878361 -0.10044931
0002b0 de 8f fe bc 7f 08 c9 3d 7d 36 23 bc ea 85 01 bd
       -0.03107446 0.098160736 -0.0099617215 -0.03162185
0002c0 c8 9d 9e 3c 71 a2 d9 bd 9a 1e 09 bd 13 04 20 3c
       0.019362345 -0.10626686 -0.03347645 0.009766596
0002d0 24 e9 8d 3d 5b ed d7 3b de 72 22 3c 35 b1 3c 3d
       0.06929234 0.0065895743 0.009915082 0.046067435
0002e0 37 ee c4 bb 76 98 74 3d 60 9c 62 3c 89 40 04 bd
       -0.0060098427 0.05971571 0.013831228 -0.032288108
0002f0 f4 aa ba bc 61 72 0e 3e 62 32 6d 3d cc dc d9 3c
       -0.022786595 0.1391082 0.057909377 0.026594542
000300 76 f5 a9 bc 6c e4 a6 3d bc 82 17 bd 8c 67 25 bd
       -0.020746928 0.08149037 -0.036989912 -0.040381953
000310 52 d2 95 3c cc de 83 bc f8 a4 65 3c cd 86 e5 3b
       0.018288765 -0.016097449 0.014016382 0.007004595
000320 53 98 5a bd 82 e7 13 3d d6 45 01 3d 36 3b b7 bb
       -0.053367924 0.036109455 0.03156074 -0.0055917753
000330 ce d6 3f bc 36 46 88 bd f1 8b c6 3d 23 57 b0 3c
       -0.011708928 -0.06654017 0.096946605 0.021525925
000340 c0 2b f8 bc 19 9a 85 bd 0c dc e5 bc 3d b9 ee bc
       -0.0302943 -0.065235324 -0.028059028 -0.029141063
000350 bd 56 0b 3d b4 63 e5 3b df 21 ed 3c 5c e0 6d bc
       0.034018267 0.007000411 0.028946815 -0.0145188235
000360 81 94 13 bd de 5d 97 bc 3a 52 e0 bd f6 8c 11 bd
       -0.036030296 -0.018477377 -0.109531835 -0.03553482
000370 f8 88 bb bc 16 f4 2c bd 01 cb 25 3b 57 56 0a 3d
       -0.02289246 -0.042224966 0.0025298002 0.033773746
000380 be 14 a1 bd 7b dd f6 3c 8e 7b e5 bc c5 73 e3 3c
       -0.078652844 0.030134907 -0.028013017 0.027765164
000390 8a 36 cb ba 06 12 fc 3c 28 cc f4 3b a1 1b 9c 3d
       -0.0015503925 0.030770313 0.0074706264 0.07622457
0003a0 7b e6 e8 3c 86 e9 59 bc f7 cc 03 bc 2e 35 eb 3d
       0.028430214 -0.013300305 -0.008044473 0.114847526
0003b0 39 40 5f 3d af 28 ec 3b ad 0b 46 3c 6e 10 a0 bd
       0.054504607 0.0072069983 0.012087745 -0.07815634
0003c0 7a 68 43 3d d2 8d 5b bc 07 d3 9c 3c b9 fe 66 bc
       0.04770706 -0.013400512 0.019143594 -0.014098817
0003d0 d1 f3 21 3d 2e 3f 76 bd a0 2a 78 bc 19 97 6a 3d
       0.039539162 -0.060118847 -0.015146881 0.057273004
0003e0 c3 f4 59 bc 8b 84 40 3d 4e 56 be 3c 1b 7d 6c bd
       -0.013302985 0.047001403 0.023234513 -0.057736497
0003f0 9a 4a 52 bb c2 77 e7 bb 85 a8 a2 bc 2d d3 60 bd
       -0.0032087923 -0.007063837 -0.019855747 -0.054888893

arith.constant19 f4 [512]
000000 05 f2 00 3d d4 e4 31 bc 07 b6 3d 3b 0e 30 0a bc
       0.031480808 -0.0108577795 0.0028947608 -0.008434309
000010 93 17 09 bd 33 4d 88 bc 28 67 c3 3c 6c fc ea 3c
       -0.033469748 -0.016638374 0.0238529 0.028684817
000020 43 49 b1 3c fb 54 02 3d 57 88 f2 3c 36 94 a5 bc
       0.02164138 0.031819325 0.029606028 -0.020212274
000030 f9 62 0a 3d ae 1b 02 bd be 17 08 3d 4a 2b 81 bb
       0.033785794 -0.03176468 0.033225767 -0.003941928
000040 77 45 f4 3c 4e 61 07 3d 8e 5b b5 3c 3b 32 0f 3d
       0.02981828 0.03305178 0.022138383 0.034960013
000050 d2 ee d6 3c 4a e2 00 3d 86 11 c8 3c c3 ed 05 3d
       0.026236925 0.031465806 0.024422418 0.03269745
000060 5a b3 9c 3c b4 03 f1 3c 99 51 a7 bb b0 74 09 3d
       0.01912849 0.029420711 -0.0051061627 0.033558547
000070 a4 ed 21 bc 90 e4 04 3d fb f5 20 bc ee 3c b8 3c
       -0.009883318 0.032444537 -0.009824271 0.022489991
000080 11 e0 8b bc d2 1f ce 3c 55 72 05 3d 66 40 e8 3c
       -0.017074617 0.025161657 0.03257974 0.02835102
000090 28 63 9d 3c 91 09 e8 3c 2a 10 11 3d 09 ba fa 3c
       0.01921232 0.028324874 0.035415806 0.030606287
0000a0 a8 b3 e5 bc cc 63 ac bc 3b 91 0b 3d a1 74 74 3c
       -0.028039768 -0.02104368 0.03407405 0.014920385
0000b0 af 0e 00 3d 82 cb ed bc 08 84 a1 3a 84 5d 9d bc
       0.031264003 -0.029027704 0.0012322674 -0.01920963
0000c0 28 1a 09 3d dd ad 4c 3b c0 b3 8b 38 3d c2 0b 3d
       0.03347221 0.003123156 6.6615175e-05 0.034120787
0000d0 d1 13 73 bb a6 dc 02 bd e8 cf b8 3c f6 09 9c bc
       -0.003709067 -0.031948708 0.022560075 -0.019047718
0000e0 0d 00 f8 3c 72 23 5a bb 95 14 07 3d 29 42 d9 3c
       0.030273462 -0.0033285287 0.032978613 0.026520805
0000f0 e4 cf e7 3c 72 8a 0b 3d 24 30 ed 3c 23 1e 57 bc
       0.028297372 0.03406758 0.02895362 -0.013129744
000100 f2 df 09 3d 65 55 fd 3c a3 bb 01 3d 5d 7d ff 3c
       0.033660837 0.030924508 0.031673085 0.031187708
000110 0f 90 a1 bc 2e 3a b6 bc 1e 64 0e 3d d5 cf c4 3c
       -0.019722013 -0.02224454 0.034763448 0.024024883
000120 ce 51 2c bc f8 a8 08 3d 5b d7 f1 3c ae 14 db 3c
       -0.010517551 0.033364266 0.029521635 0.02674326
000130 62 6b 0a 3d 70 ef e1 bc 54 22 08 3d aa 04 fb 3c
       0.033793814 -0.027579993 0.033235863 0.030641872
000140 61 e6 04 3d c8 1b d5 3c 90 dc 15 bc 3a bd e1 3a
       0.03244627 0.026014224 -0.0091468245 0.0017222532
000150 7a ef d3 bc 5d f2 08 3d f1 60 91 bc da 68 f4 3c
       -0.025871027 0.03343426 -0.01774642 0.029835153
000160 1a de e8 3c 3d 38 97 3c df 36 1b bd 24 9c 9c bc
       0.028426219 0.018459434 -0.037894126 -0.019117422
000170 9b 0f 98 3c 83 9c c7 3c fd e3 ec 3c 4d b2 6f bc
       0.018562129 0.024366623 0.028917307 -0.014629913
000180 ac 0f 45 bb 38 42 22 bc 3b 6f ec 3c 2c cf 1c bc
       -0.0030069156 -0.009903483 0.028861633 -0.009570878
000190 04 5b ae bc 8a e4 b2 bc 23 3a bf 3c 89 b5 db 3c
       -0.021283634 -0.021837492 0.023343151 0.026819961
0001a0 68 6b a8 bc db 33 0f 3d 48 a7 d4 3b 19 e2 d2 3c
       -0.020559028 0.034961563 0.006489668 0.025742577
0001b0 eb 81 e0 3c d9 32 bd bc 38 47 f5 3c 9c 7a 80 bc
       0.0274057 -0.023095535 0.029941186 -0.015683465
0001c0 c1 4c 2e 3c f2 3e f6 3c 2f f7 03 3d 83 43 d8 bc
       0.010638417 0.030059312 0.032218155 -0.02639938
0001d0 35 f4 01 3d fd 98 57 ba 2b 46 b7 bc b9 16 f8 bc
       0.031727035 -0.0008224396 -0.022372326 -0.030284273
0001e0 8c a2 4c 3c 4b ce a9 bc b9 6d eb 3c 70 73 90 bc
       0.012489926 -0.020728251 0.028738843 -0.01763317
0001f0 af 61 00 3d 2d af b5 bc 3c a3 00 3d d5 f4 0a 3d
       0.03134316 -0.022178257 0.031405672 0.033924896
000200 9d 28 84 3f c0 97 7d 3f 83 4c 80 3f c1 91 7c 3f
       1.0324894 0.9905968 1.002335 0.986599
000210 03 53 79 3f e8 45 7b 3f 56 63 83 3f 25 72 84 3f
       0.9739229 0.98153543 1.026469 1.0347334
000220 3a b1 82 3f 9a fc 83 3f 6f be 83 3f 07 59 7b 3f
       1.0210335 1.0311463 1.0292491 0.9818272
000230 88 a6 84 3f 6a 71 7a 3f 4d 4e 84 3f 98 8c 7d 3f
       1.0363321 0.97829306 1.0336396 0.99042654
000240 85 cd 83 3f c8 34 84 3f 2d 6c 83 3f 80 bb 84 3f
       1.0297095 1.0328608 1.0267388 1.036972
000250 e1 76 83 3f 71 4d 84 3f 81 44 84 3f 5c 0b 84 3f
       1.0270654 1.0336133 1.0333406 1.0315967
000260 ec 56 80 3f ab 0f 84 3f 68 7f 7d 3f c0 72 84 3f
       1.0026526 1.0317281 0.9902253 1.0347519
000270 f1 b4 7c 3f 3c 1e 84 3f 77 15 7d 3f c5 16 83 3f
       0.98713595 1.0321727 0.9886088 1.0241324
000280 12 ab 7b 3f 44 7f 83 3f fe 56 84 3f e4 8c 83 3f
       0.9830791 1.0273213 1.0339048 1.0277371
000290 10 7e 82 3f 2b 8a 83 3f d7 2f 84 3f f8 0a 84 3f
       1.0194721 1.027654 1.03271 1.0315847
0002a0 97 81 7a 3f 23 02 7b 3f f8 a8 84 3f 27 fc 81 3f
       0.9785399 0.98050135 1.0364065 1.0155076
0002b0 54 eb 83 3f 05 52 7a 3f a8 9f 80 3f 1d 40 7a 3f
       1.0306191 0.977814 1.0048723 0.9775408
0002c0 90 65 84 3f 50 27 7f 3f 5d d4 7e 3f 14 84 84 3f
       1.0343494 0.9966936 0.9954279 1.0352807
0002d0 69 54 7e 3f a0 0f 79 3f 9d 23 82 3f 40 64 7b 3f
       0.9934755 0.97289467 1.0167118 0.98199844
0002e0 31 bc 83 3f 3c 47 7d 3f e0 57 84 3f 3d b5 83 3f
       1.0291806 0.9893682 1.0339317 1.0289685
0002f0 03 81 83 3f 65 6e 84 3f 37 a2 83 3f 31 94 7b 3f
       1.0273746 1.034619 1.0283879 0.98273
000300 6c c5 84 3f 6c 1e 84 3f 18 f3 83 3f 4e f5 83 3f
       1.0372748 1.0321784 1.0308561 1.0309236
000310 d0 06 7b 3f 5f d8 7a 3f 10 a0 84 3f 19 c6 82 3f
       0.9805727 0.97986406 1.0361347 1.0216705
000320 f2 f3 7c 3f 17 61 84 3f 84 ea 83 3f 57 06 84 3f
       0.9880973 1.034213 1.0305943 1.0314435
000330 8d a8 84 3f e3 3e 79 3f db 70 84 3f fe e9 83 3f
       1.0363938 0.9736158 1.0346941 1.0305784
000340 d2 36 84 3f 3b 05 84 3f 55 a7 7d 3f 04 b5 80 3f
       1.032923 1.0314096 0.99083453 1.0055242
000350 a4 6b 7a 3f 83 1e 84 3f e6 8e 7b 3f f8 d8 83 3f
       0.97820497 1.0321811 0.9826492 1.0300589
000360 c7 17 84 3f 9f 5b 82 3f c6 f3 78 3f 26 5a 7c 3f
       1.0319756 1.018421 0.9724697 0.98575056
000370 91 2d 82 3f 2c 83 82 3f 00 b6 83 3f 67 79 7c 3f
       1.0170156 1.019628 1.0289917 0.98622745
000380 9e aa 7d 3f 31 b9 7c 3f de 87 83 3f 99 de 7f 3f
       0.99088466 0.9872008 1.0275838 0.9994903
000390 df a2 7a 3f 90 0b 7b 3f 3c 30 83 3f 6e 1c 84 3f
       0.9790477 0.9806452 1.0249095 1.0321176
0003a0 ad 4d 7b 3f e0 02 85 3f 65 11 81 3f 74 bc 83 3f
       0.981654 1.0391502 1.0083433 1.0291886
0003b0 68 95 83 3f 5d a2 7b 3f d7 9f 83 3f 1d 2c 7c 3f
       1.027997 0.9829462 1.0283154 0.9850481
0003c0 24 6a 81 3f 44 da 83 3f db 27 84 3f c9 d2 7a 3f
       1.0110517 1.0300984 1.0324663 0.9797788
0003d0 19 07 84 3f 58 3d 7e 3f 3e ab 7a 3f 4a 42 7a 3f
       1.0314666 0.99312353 0.97917545 0.977574
0003e0 cf f6 7e 3f f6 d3 7b 3f cf 8f 83 3f ce c5 7b 3f
       0.9959535 0.983703 1.0278262 0.983487
0003f0 03 05 84 3f 04 3a 7a 3f e0 dc 83 3f c3 ad 84 3f
       1.031403 0.97744775 1.0301781 1.0365528
